GMMVAE(
  (fc1): Linear(in_features=16599, out_features=1024, bias=True)
  (mus): ModuleList(
    (0): Linear(in_features=1024, out_features=20, bias=True)
    (1): Linear(in_features=1024, out_features=20, bias=True)
    (2): Linear(in_features=1024, out_features=20, bias=True)
    (3): Linear(in_features=1024, out_features=20, bias=True)
    (4): Linear(in_features=1024, out_features=20, bias=True)
    (5): Linear(in_features=1024, out_features=20, bias=True)
    (6): Linear(in_features=1024, out_features=20, bias=True)
  )
  (log_vars): ModuleList(
    (0): Linear(in_features=1024, out_features=20, bias=True)
    (1): Linear(in_features=1024, out_features=20, bias=True)
    (2): Linear(in_features=1024, out_features=20, bias=True)
    (3): Linear(in_features=1024, out_features=20, bias=True)
    (4): Linear(in_features=1024, out_features=20, bias=True)
    (5): Linear(in_features=1024, out_features=20, bias=True)
    (6): Linear(in_features=1024, out_features=20, bias=True)
  )
  (wght_comps): Linear(in_features=7, out_features=1, bias=True)
  (fc4): Linear(in_features=20, out_features=20, bias=True)
  (fc5): Linear(in_features=20, out_features=1024, bias=True)
  (fc6): Linear(in_features=1024, out_features=16599, bias=True)
)
==============================Loss==============================
Epoch[1/70], Step [100/352], Reconst Loss: 59.4638, KL Div: 19.6443
Epoch[1/70], Step [200/352], Reconst Loss: 50.6744, KL Div: 2.0558
Epoch[1/70], Step [300/352], Reconst Loss: 50.4688, KL Div: 0.1393
Epoch[2/70], Step [100/352], Reconst Loss: 49.6678, KL Div: 0.0426
Epoch[2/70], Step [200/352], Reconst Loss: 49.2231, KL Div: 0.0293
…
