GMMVAE(
  (fc1): Linear(in_features=12567, out_features=1024, bias=True)
  (mus): ModuleList(
    (0): Linear(in_features=1024, out_features=20, bias=True)
    (1): Linear(in_features=1024, out_features=20, bias=True)
    (2): Linear(in_features=1024, out_features=20, bias=True)
    (3): Linear(in_features=1024, out_features=20, bias=True)
    (4): Linear(in_features=1024, out_features=20, bias=True)
    (5): Linear(in_features=1024, out_features=20, bias=True)
    (6): Linear(in_features=1024, out_features=20, bias=True)
  )
  (log_vars): ModuleList(
    (0): Linear(in_features=1024, out_features=20, bias=True)
    (1): Linear(in_features=1024, out_features=20, bias=True)
    (2): Linear(in_features=1024, out_features=20, bias=True)
    (3): Linear(in_features=1024, out_features=20, bias=True)
    (4): Linear(in_features=1024, out_features=20, bias=True)
    (5): Linear(in_features=1024, out_features=20, bias=True)
    (6): Linear(in_features=1024, out_features=20, bias=True)
  )
  (wght_comps): Linear(in_features=7, out_features=1, bias=True)
  (fc4): Linear(in_features=20, out_features=20, bias=True)
  (fc5): Linear(in_features=20, out_features=1024, bias=True)
  (fc6): Linear(in_features=1024, out_features=12567, bias=True)
)
==============================Loss==============================
Epoch[1/70], Step [100/105], Reconst Loss: 108.3491, KL Div: 17.5307
Epoch[2/70], Step [100/105], Reconst Loss: 100.1075, KL Div: 1.0565
Epoch[3/70], Step [100/105], Reconst Loss: 97.6281, KL Div: 0.2219
Epoch[4/70], Step [100/105], Reconst Loss: 98.0789, KL Div: 0.1705
Epoch[5/70], Step [100/105], Reconst Loss: 98.1404, KL Div: 0.1259
…
